{
    "format": "layers-model",
    "generatedBy": "keras v2.4.0",
    "convertedBy": "TensorFlow.js Converter v2.3.0",
    "modelTopology": {
        "keras_version": "2.4.0",
        "backend": "tensorflow",
        "model_config": {
            "class_name": "Sequential",
            "config": {
                "name": "sequential",
                "layers": [
                    {
                        "class_name": "InputLayer",
                        "config": {
                            "batch_input_shape": [
                                null,
                                227,
                                227,
                                3
                            ],
                            "dtype": "float32",
                            "sparse": false,
                            "ragged": false,
                            "name": "conv2d_input"
                        }
                    },
                    {
                        "class_name": "Conv2D",
                        "config": {
                            "name": "conv2d",
                            "trainable": true,
                            "batch_input_shape": [
                                null,
                                227,
                                227,
                                3
                            ],
                            "dtype": "float32",
                            "filters": 96,
                            "kernel_size": [
                                11,
                                11
                            ],
                            "strides": [
                                4,
                                4
                            ],
                            "padding": "valid",
                            "data_format": "channels_last",
                            "dilation_rate": [
                                1,
                                1
                            ],
                            "groups": 1,
                            "activation": "linear",
                            "use_bias": true,
                            "kernel_initializer": {
                                "class_name": "GlorotUniform",
                                "config": {
                                    "seed": null,
                                    "dtype": "float32"
                                }
                            },
                            "bias_initializer": {
                                "class_name": "Zeros",
                                "config": {
                                    "dtype": "float32"
                                }
                            },
                            "kernel_regularizer": null,
                            "bias_regularizer": null,
                            "activity_regularizer": null,
                            "kernel_constraint": null,
                            "bias_constraint": null
                        }
                    },
                    {
                        "class_name": "Activation",
                        "config": {
                            "name": "activation",
                            "trainable": true,
                            "dtype": "float32",
                            "activation": "relu"
                        }
                    },
                    {
                        "class_name": "MaxPooling2D",
                        "config": {
                            "name": "max_pooling2d",
                            "trainable": true,
                            "dtype": "float32",
                            "pool_size": [
                                3,
                                3
                            ],
                            "padding": "valid",
                            "strides": [
                                2,
                                2
                            ],
                            "data_format": "channels_last"
                        }
                    },
                    {
                        "class_name": "Conv2D",
                        "config": {
                            "name": "conv2d_1",
                            "trainable": true,
                            "dtype": "float32",
                            "filters": 256,
                            "kernel_size": [
                                5,
                                5
                            ],
                            "strides": [
                                1,
                                1
                            ],
                            "padding": "same",
                            "data_format": "channels_last",
                            "dilation_rate": [
                                1,
                                1
                            ],
                            "groups": 1,
                            "activation": "linear",
                            "use_bias": true,
                            "kernel_initializer": {
                                "class_name": "GlorotUniform",
                                "config": {
                                    "seed": null,
                                    "dtype": "float32"
                                }
                            },
                            "bias_initializer": {
                                "class_name": "Zeros",
                                "config": {
                                    "dtype": "float32"
                                }
                            },
                            "kernel_regularizer": null,
                            "bias_regularizer": null,
                            "activity_regularizer": null,
                            "kernel_constraint": null,
                            "bias_constraint": null
                        }
                    },
                    {
                        "class_name": "Activation",
                        "config": {
                            "name": "activation_1",
                            "trainable": true,
                            "dtype": "float32",
                            "activation": "relu"
                        }
                    },
                    {
                        "class_name": "MaxPooling2D",
                        "config": {
                            "name": "max_pooling2d_1",
                            "trainable": true,
                            "dtype": "float32",
                            "pool_size": [
                                3,
                                3
                            ],
                            "padding": "valid",
                            "strides": [
                                2,
                                2
                            ],
                            "data_format": "channels_last"
                        }
                    },
                    {
                        "class_name": "Conv2D",
                        "config": {
                            "name": "conv2d_2",
                            "trainable": true,
                            "dtype": "float32",
                            "filters": 384,
                            "kernel_size": [
                                3,
                                3
                            ],
                            "strides": [
                                1,
                                1
                            ],
                            "padding": "same",
                            "data_format": "channels_last",
                            "dilation_rate": [
                                1,
                                1
                            ],
                            "groups": 1,
                            "activation": "linear",
                            "use_bias": true,
                            "kernel_initializer": {
                                "class_name": "GlorotUniform",
                                "config": {
                                    "seed": null,
                                    "dtype": "float32"
                                }
                            },
                            "bias_initializer": {
                                "class_name": "Zeros",
                                "config": {
                                    "dtype": "float32"
                                }
                            },
                            "kernel_regularizer": null,
                            "bias_regularizer": null,
                            "activity_regularizer": null,
                            "kernel_constraint": null,
                            "bias_constraint": null
                        }
                    },
                    {
                        "class_name": "Activation",
                        "config": {
                            "name": "activation_2",
                            "trainable": true,
                            "dtype": "float32",
                            "activation": "relu"
                        }
                    },
                    {
                        "class_name": "Conv2D",
                        "config": {
                            "name": "conv2d_3",
                            "trainable": true,
                            "dtype": "float32",
                            "filters": 384,
                            "kernel_size": [
                                3,
                                3
                            ],
                            "strides": [
                                1,
                                1
                            ],
                            "padding": "same",
                            "data_format": "channels_last",
                            "dilation_rate": [
                                1,
                                1
                            ],
                            "groups": 1,
                            "activation": "linear",
                            "use_bias": true,
                            "kernel_initializer": {
                                "class_name": "GlorotUniform",
                                "config": {
                                    "seed": null,
                                    "dtype": "float32"
                                }
                            },
                            "bias_initializer": {
                                "class_name": "Zeros",
                                "config": {
                                    "dtype": "float32"
                                }
                            },
                            "kernel_regularizer": null,
                            "bias_regularizer": null,
                            "activity_regularizer": null,
                            "kernel_constraint": null,
                            "bias_constraint": null
                        }
                    },
                    {
                        "class_name": "Activation",
                        "config": {
                            "name": "activation_3",
                            "trainable": true,
                            "dtype": "float32",
                            "activation": "relu"
                        }
                    },
                    {
                        "class_name": "Conv2D",
                        "config": {
                            "name": "conv2d_4",
                            "trainable": true,
                            "dtype": "float32",
                            "filters": 256,
                            "kernel_size": [
                                3,
                                3
                            ],
                            "strides": [
                                1,
                                1
                            ],
                            "padding": "same",
                            "data_format": "channels_last",
                            "dilation_rate": [
                                1,
                                1
                            ],
                            "groups": 1,
                            "activation": "linear",
                            "use_bias": true,
                            "kernel_initializer": {
                                "class_name": "GlorotUniform",
                                "config": {
                                    "seed": null,
                                    "dtype": "float32"
                                }
                            },
                            "bias_initializer": {
                                "class_name": "Zeros",
                                "config": {
                                    "dtype": "float32"
                                }
                            },
                            "kernel_regularizer": null,
                            "bias_regularizer": null,
                            "activity_regularizer": null,
                            "kernel_constraint": null,
                            "bias_constraint": null
                        }
                    },
                    {
                        "class_name": "Activation",
                        "config": {
                            "name": "activation_4",
                            "trainable": true,
                            "dtype": "float32",
                            "activation": "relu"
                        }
                    },
                    {
                        "class_name": "MaxPooling2D",
                        "config": {
                            "name": "max_pooling2d_2",
                            "trainable": true,
                            "dtype": "float32",
                            "pool_size": [
                                3,
                                3
                            ],
                            "padding": "valid",
                            "strides": [
                                2,
                                2
                            ],
                            "data_format": "channels_last"
                        }
                    },
                    {
                        "class_name": "Flatten",
                        "config": {
                            "name": "flatten",
                            "trainable": true,
                            "dtype": "float32",
                            "data_format": "channels_last"
                        }
                    },
                    {
                        "class_name": "Dense",
                        "config": {
                            "name": "dense",
                            "trainable": true,
                            "dtype": "float32",
                            "units": 4096,
                            "activation": "linear",
                            "use_bias": true,
                            "kernel_initializer": {
                                "class_name": "GlorotUniform",
                                "config": {
                                    "seed": null,
                                    "dtype": "float32"
                                }
                            },
                            "bias_initializer": {
                                "class_name": "Zeros",
                                "config": {
                                    "dtype": "float32"
                                }
                            },
                            "kernel_regularizer": null,
                            "bias_regularizer": null,
                            "activity_regularizer": null,
                            "kernel_constraint": null,
                            "bias_constraint": null
                        }
                    },
                    {
                        "class_name": "Activation",
                        "config": {
                            "name": "activation_5",
                            "trainable": true,
                            "dtype": "float32",
                            "activation": "relu"
                        }
                    },
                    {
                        "class_name": "Dropout",
                        "config": {
                            "name": "dropout",
                            "trainable": true,
                            "dtype": "float32",
                            "rate": 0.5,
                            "noise_shape": null,
                            "seed": null
                        }
                    },
                    {
                        "class_name": "Dense",
                        "config": {
                            "name": "dense_1",
                            "trainable": true,
                            "dtype": "float32",
                            "units": 4096,
                            "activation": "linear",
                            "use_bias": true,
                            "kernel_initializer": {
                                "class_name": "GlorotUniform",
                                "config": {
                                    "seed": null,
                                    "dtype": "float32"
                                }
                            },
                            "bias_initializer": {
                                "class_name": "Zeros",
                                "config": {
                                    "dtype": "float32"
                                }
                            },
                            "kernel_regularizer": null,
                            "bias_regularizer": null,
                            "activity_regularizer": null,
                            "kernel_constraint": null,
                            "bias_constraint": null
                        }
                    },
                    {
                        "class_name": "Activation",
                        "config": {
                            "name": "activation_6",
                            "trainable": true,
                            "dtype": "float32",
                            "activation": "relu"
                        }
                    },
                    {
                        "class_name": "Dropout",
                        "config": {
                            "name": "dropout_1",
                            "trainable": true,
                            "dtype": "float32",
                            "rate": 0.5,
                            "noise_shape": null,
                            "seed": null
                        }
                    },
                    {
                        "class_name": "Dense",
                        "config": {
                            "name": "dense_2",
                            "trainable": true,
                            "dtype": "float32",
                            "units": 1,
                            "activation": "linear",
                            "use_bias": true,
                            "kernel_initializer": {
                                "class_name": "GlorotUniform",
                                "config": {
                                    "seed": null,
                                    "dtype": "float32"
                                }
                            },
                            "bias_initializer": {
                                "class_name": "Zeros",
                                "config": {
                                    "dtype": "float32"
                                }
                            },
                            "kernel_regularizer": null,
                            "bias_regularizer": null,
                            "activity_regularizer": null,
                            "kernel_constraint": null,
                            "bias_constraint": null
                        }
                    },
                    {
                        "class_name": "Activation",
                        "config": {
                            "name": "activation_7",
                            "trainable": true,
                            "dtype": "float32",
                            "activation": "sigmoid"
                        }
                    }
                ]
            }
        },
        "training_config": {
            "loss": "log_loss",
            "metrics": [
                "accuracy"
            ],
            "loss_weights": null,
            "sample_weight_mode": null,
            "weighted_metrics": null,
            "optimizer_config": {
                "class_name": "Adam",
                "config": {
                    "name": "Adam",
                    "learning_rate": 0.000009999999747378752,
                    "decay": 0,
                    "beta_1": 0.8999999761581421,
                    "beta_2": 0.9990000128746033,
                    "epsilon": 1e-7,
                    "amsgrad": false
                }
            }
        }
    },
    "weightsManifest": [
        {
            "paths": [
                "group1-shard1of56.bin",
                "group1-shard2of56.bin",
                "group1-shard3of56.bin",
                "group1-shard4of56.bin",
                "group1-shard5of56.bin",
                "group1-shard6of56.bin",
                "group1-shard7of56.bin",
                "group1-shard8of56.bin",
                "group1-shard9of56.bin",
                "group1-shard10of56.bin",
                "group1-shard11of56.bin",
                "group1-shard12of56.bin",
                "group1-shard13of56.bin",
                "group1-shard14of56.bin",
                "group1-shard15of56.bin",
                "group1-shard16of56.bin",
                "group1-shard17of56.bin",
                "group1-shard18of56.bin",
                "group1-shard19of56.bin",
                "group1-shard20of56.bin",
                "group1-shard21of56.bin",
                "group1-shard22of56.bin",
                "group1-shard23of56.bin",
                "group1-shard24of56.bin",
                "group1-shard25of56.bin",
                "group1-shard26of56.bin",
                "group1-shard27of56.bin",
                "group1-shard28of56.bin",
                "group1-shard29of56.bin",
                "group1-shard30of56.bin",
                "group1-shard31of56.bin",
                "group1-shard32of56.bin",
                "group1-shard33of56.bin",
                "group1-shard34of56.bin",
                "group1-shard35of56.bin",
                "group1-shard36of56.bin",
                "group1-shard37of56.bin",
                "group1-shard38of56.bin",
                "group1-shard39of56.bin",
                "group1-shard40of56.bin",
                "group1-shard41of56.bin",
                "group1-shard42of56.bin",
                "group1-shard43of56.bin",
                "group1-shard44of56.bin",
                "group1-shard45of56.bin",
                "group1-shard46of56.bin",
                "group1-shard47of56.bin",
                "group1-shard48of56.bin",
                "group1-shard49of56.bin",
                "group1-shard50of56.bin",
                "group1-shard51of56.bin",
                "group1-shard52of56.bin",
                "group1-shard53of56.bin",
                "group1-shard54of56.bin",
                "group1-shard55of56.bin",
                "group1-shard56of56.bin"
            ],
            "weights": [
                {
                    "name": "conv2d/kernel",
                    "shape": [
                        11,
                        11,
                        3,
                        96
                    ],
                    "dtype": "float32"
                },
                {
                    "name": "conv2d/bias",
                    "shape": [
                        96
                    ],
                    "dtype": "float32"
                },
                {
                    "name": "conv2d_1/kernel",
                    "shape": [
                        5,
                        5,
                        96,
                        256
                    ],
                    "dtype": "float32"
                },
                {
                    "name": "conv2d_1/bias",
                    "shape": [
                        256
                    ],
                    "dtype": "float32"
                },
                {
                    "name": "conv2d_2/kernel",
                    "shape": [
                        3,
                        3,
                        256,
                        384
                    ],
                    "dtype": "float32"
                },
                {
                    "name": "conv2d_2/bias",
                    "shape": [
                        384
                    ],
                    "dtype": "float32"
                },
                {
                    "name": "conv2d_3/kernel",
                    "shape": [
                        3,
                        3,
                        384,
                        384
                    ],
                    "dtype": "float32"
                },
                {
                    "name": "conv2d_3/bias",
                    "shape": [
                        384
                    ],
                    "dtype": "float32"
                },
                {
                    "name": "conv2d_4/kernel",
                    "shape": [
                        3,
                        3,
                        384,
                        256
                    ],
                    "dtype": "float32"
                },
                {
                    "name": "conv2d_4/bias",
                    "shape": [
                        256
                    ],
                    "dtype": "float32"
                },
                {
                    "name": "dense/kernel",
                    "shape": [
                        9216,
                        4096
                    ],
                    "dtype": "float32"
                },
                {
                    "name": "dense/bias",
                    "shape": [
                        4096
                    ],
                    "dtype": "float32"
                },
                {
                    "name": "dense_1/kernel",
                    "shape": [
                        4096,
                        4096
                    ],
                    "dtype": "float32"
                },
                {
                    "name": "dense_1/bias",
                    "shape": [
                        4096
                    ],
                    "dtype": "float32"
                },
                {
                    "name": "dense_2/kernel",
                    "shape": [
                        4096,
                        1
                    ],
                    "dtype": "float32"
                },
                {
                    "name": "dense_2/bias",
                    "shape": [
                        1
                    ],
                    "dtype": "float32"
                }
            ]
        }
    ]
}